chapters/regularizers/scripts/models/gmm/state_final_.pth (torch, 36151 bytes, 5 tensors)

w f4 [48, 125]
00000000: 9aee 4238 26b9 3136 3205 2836 d35e 3836
00000010: dffc 5236 e048 7136 efb7 8936 516d 9e36
00000020: c4df bb36 b728 de36 9be2 f936 fa2e 0b37
00000030: 79a2 1b37 24ec 2a37 a973 3f37 1054 6237
00000040: 6955 8537 081b 9637 8d58 ac37 d55f d437
00000050: 0fde fc37 da50 0838 c5c1 1038 ed64 2538
00000060: a5e0 4b38 0c5d 7038 20b9 8638 0098 9938
00000070: 829d af38 5428 bd38 3595 dc38 9905 0939
00000080: 9907 1d39 b820 2d39 ddf6 3b39 9788 5939
00000090: 713f 8639 7083 9f39 0853 c039 8755 d739
000000a0: e157 f739 3510 163a 1d8a 2f3a dcf9 583a
000000b0: 02ea 8d3a 7fc6 9c3a cf8a ad3a 526c e83a
000000c0: 99a4 0c3b ba52 293b 2c38 513b 327c 6c3b
000000d0: 0ddf 8c3b f6b7 ef3b dabc fe3b f168 e33b
000000e0: 37df 993c ffb0 ac3b c1ec 043d 395c 513d
000000f0: 7be5 8539 4892 9239 6905 2f3f 1da4 8c39
00000100: ae74 8239 421e 603d 08d3 fa3c 7689 a33b
00000110: 6d38 a43c 49f9 f53b cd46 e73b 0c6e cf3b
00000120: ed88 9c3b 9602 8a3b b70a 543b c2d0 273b
00000130: c3b3 043b e7ab d53a d246 b53a 0ca1 9a3a
00000140: 679a 7c3a cf6d 4d3a a77b 2e3a 15c1 123a
00000150: f30a 003a a809 e739 1fa1 c339 3a63 a239
00000160: 3cf8 8539 e015 6839 b018 4b39 3213 2639
00000170: 13eb 0e39 2b34 fd38 9618 d438 e9c7 c138
00000180: 294d b838 a6e2 9438 bb8d 7438 b2fc 5938
00000190: 9a72 4338 940f 2e38 90b2 1d38 bb11 0b38
000001a0: 674f e537 3f97 bd37 501f ab37 714f 9f37
000001b0: dd58 9137 8aca 8037 6816 5a37 c2a6 3b37
000001c0: 1463 2937 ea79 1b37 55ad 0737 e5b0 dc36
000001d0: 53f2 b436 a1b3 9b36 c4b7 8936 f4ee 7436
000001e0: 830d 5636 a97a 3a36 4ec1 2a36 95de 3536
000001f0: 41a7 6138 20f4 7938 b2fd a235 c636 b035
00000200: 2584 fc35 9c7c 4e36 b4b4 a236 5625 dc36
00000210: b0af 0337 30a4 1537 7d71 2a37 10d6 3c37
00000220: 12e2 4d37 2d06 7037 4638 9037 06f8 9b37
00000230: 650d a537 a068 bc37 c676 e337 2747 0638
00000240: 1668 1738 ec9d 2838 ab76 3938 ebb6 4d38
00000250: 7b64 6f38 9040 8f38 5d2e a838 bff7 c138
00000260: 01f8 dd38 46eb f538 8baa 0539 52d2 1839
00000270: 5d45 3239 d8e6 4b39 0e15 6739 2c92 7139
00000280: 06e3 8739 4eac ac39 7471 c839 af18 df39
00000290: 8d27 fc39 b50b 0b3a 09fe 303a 19e8 4c3a
000002a0: c96c 5c3a a555 863a c8c0 9e3a 95e1 bf3a
000002b0: ba94 de3a c579 003b 0bab 143b 545e 283b
000002c0: 29c2 6d3b 8ab3 8e3b 3edb ae3b 7569 eb3b
000002d0: 51ce e53b f22f 7d3c 3730 273c f8f4 903c
000002e0: f4d8 593d e092 da38 7bbb e138 760a 353f
000002f0: ffd9 e938 4ecf df38 bc0e 673d 8053 953c
00000300: 2a2f 283c 99d6 903c 8cca e43b 81cd e13b
00000310: 1a6a be3b c842 913b 7279 723b 44f5 3f3b
00000320: 506f 1c3b 57e9 f23a a055 ca3a b978 b43a
00000330: d4bb 9f3a 76f4 843a fbff 583a 3407 343a
00000340: b7bd 253a 5173 0d3a 4a40 f839 f258 e039
00000350: 2e00 bb39 2aaf 9c39 01f3 9039 15ec 7039
00000360: 1dc1 4e39 784d 4a39 19fe 2639 ee25 1239
00000370: 86fd 0c39 57d8 eb38 c721 c938 3d0a bc38
00000380: 6ccd b138 406a 9738 e2fd 8038 5c7a 7338
00000390: a8a8 5638 bac0 3838 61b8 2038 001b 1338
000003a0: ac8e 0938 f382 ed37 df25 d137 b116 c037
000003b0: 490a ab37 0f3f 9737 b03c 8e37 624c 8537
000003c0: 8965 5f37 67ef 3537 11a1 2337 66ce 1137
000003d0: 510e e236 002b 9036 d921 1f36 a56e c635
000003e0: e15a ad35 f903 b138 cc6c a238 f374 bd35
000003f0: 32d0 d235 4e4a 1a36 8189 7736 b71e b936
4.647542e-05 2.6482826e-06 2.5036975e-06 2.7473332e-06 3.1439629e-06 3.5954217e-06 4.104331e-06 4.721493e-06
5.599084e-06 6.6208554e-06 7.4471586e-06 8.295983e-06 9.276549e-06 1.018777e-05 1.1411416e-05 1.3490222e-05
1.5894608e-05 1.789398e-05 2.0545232e-05 2.5316995e-05 3.0144145e-05 3.2500226e-05 3.4512737e-05 3.943306e-05
4.8608188e-05 5.7307116e-05 6.4241e-05 7.323921e-05 8.3739884e-05 9.019734e-05 0.000105182095 0.00013067423
0.00014975517 0.00016510754 0.00017925673 0.00020745616 0.0002560574 0.00030424772 0.00036682957 0.00041071718
0.00047176986 0.0005724461 0.00066963007 0.0008276978 0.0010827186 0.0011961012 0.0013240221 0.0017732477
0.0021460413 0.0025836662 0.003192435 0.0036084768 0.0042990507 0.007315631 0.0077739777 0.00694
0.018783195 0.005270123 0.03245235 0.05111334 0.00025538713 0.00027956278 0.6836763 0.00026825155
0.00024882465 0.054716356 0.030618206 0.004990752 0.020046437 0.0075065237 0.0070580007 0.0063302573
0.004777065 0.004211734 0.003235502 0.0025606607 0.0020248748 0.0016301841 0.001383031 0.0011797263
0.0009636045 0.0007836492 0.0006655999 0.00055982295 0.0004884444 0.00044066948 0.00037313343 0.00030972977
0.00025552686 0.00022133393 0.00019368785 0.00015838144 0.00013629747 0.00012073697 0.00010113527 9.240193e-05
8.788176e-05 7.0994065e-05 5.830613e-05 5.1972173e-05 4.6598354e-05 4.149934e-05 3.7598016e-05 3.3156695e-05
2.7335902e-05 2.2600985e-05 2.039937e-05 1.899127e-05 1.7326727e-05 1.5353104e-05 1.2999029e-05 1.1184895e-05
1.0096253e-05 9.267105e-06 8.086984e-06 6.577104e-06 5.3926283e-06 4.6402715e-06 4.1043113e-06 3.6497922e-06
3.189635e-06 2.7787557e-06 2.5444492e-06 2.7100662e-06 5.3799948e-05 5.9593585e-05 1.2143776e-06 1.3128963e-06
1.8813922e-06 3.0768924e-06 4.849013e-06 6.5608574e-06 7.849114e-06 8.91932e-06 1.0159213e-05 1.12555135e-05
1.2271588e-05 1.4306553e-05 1.7192342e-05 1.8592935e-05 1.967577e-05 2.2460066e-05 2.7115817e-05 3.2014355e-05
3.6098143e-05 4.0201397e-05 4.4217955e-05 4.9046164e-05 5.707562e-05 6.830797e-05 8.0195e-05 9.2491035e-05
0.000105842955 0.000117263335 0.000127474 0.000145742 0.00017001243 0.00019445585 0.0002203772 0.00023038004
0.00025918352 0.00032934773 0.00038231502 0.00042552265 0.00048094653 0.00053041737 0.00067517214 0.00078165677
0.0008408544 0.0010248913 0.0012111897 0.0014639372 0.001698158 0.001960383 0.0022684957 0.002569099
0.0036279059 0.004354899 0.0053361943 0.0071842023 0.00701312 0.015453326 0.010204366 0.017694935
0.05318542 0.00010422408 0.00010763757 0.7071909 0.00011150911 0.00010672082 0.056410536 0.018228292
0.010265151 0.017680453 0.0069821533 0.006890953 0.005810988 0.00443301 0.0036998657 0.0029290477
0.0023870058 0.0018532675 0.0015436895 0.0013768888 0.0012186714 0.0010143656 0.000827789 0.00068675284
0.000632252 0.00053959066 0.00047350145 0.0004279088 0.00035667553 0.00029885146 0.00027646872 0.00022976131
0.00019717631 0.0001929308 0.00015925652 0.00013937775 0.00013445885 0.0001124597 9.5907184e-05 8.9664456e-05
8.4782805e-05 7.220032e-05 6.150805e-05 5.804967e-05 5.117865e-05 4.404851e-05 3.831869e-05 3.5072677e-05
3.279622e-05 2.831358e-05 2.4932377e-05 2.289875e-05 2.0389578e-05 1.8029967e-05 1.6955979e-05 1.5890404e-05
1.3315476e-05 1.0844181e-05 9.753058e-06 8.690729e-06 6.7369915e-06 4.2965403e-06 2.3712548e-06 1.4784351e-06
1.2915954e-06 8.440758e-05 7.745027e-05 1.4115634e-06 1.5706812e-06 2.299104e-06 3.6885906e-06 5.5170053e-06

mus f4 [125]
00000000: 0000 80bf f8de 7bbf f0bd 77bf e79c 73bf
00000010: df7b 6fbf d75a 6bbf ce39 67bf c618 63bf
00000020: bef7 5ebf b6d6 5abf aeb5 56bf a594 52bf
00000030: 9d73 4ebf 9552 4abf 8c31 46bf 8410 42bf
00000040: 7cef 3dbf 74ce 39bf 6cad 35bf 638c 31bf
00000050: 5b6b 2dbf 534a 29bf 4a29 25bf 4208 21bf
00000060: 3ae7 1cbf 32c6 18bf 2aa5 14bf 2184 10bf
00000070: 1963 0cbf 1142 08bf 0821 04bf 0000 00bf
00000080: f0bd f7be e07b efbe cf39 e7be bef7 debe
00000090: aeb5 d6be 9e73 cebe 8d31 c6be 7cef bdbe
000000a0: 6cad b5be 5c6b adbe 4b29 a5be 3ae7 9cbe
000000b0: 2aa5 94be 1a63 8cbe 0921 84be f1bd 77be
000000c0: d039 67be afb5 56be 8e31 46be 6dad 35be
000000d0: 4c29 25be 2ba5 14be 0a21 04be d239 e7bd
000000e0: 9031 c6bd 4e29 a5bd 0c21 84bd 9431 46bd
000000f0: 1021 04bd 1821 84bc 0000 00b3 f820 843c
00000100: 1021 043d 9431 463d 0c21 843d 4e29 a53d
00000110: 9031 c63d d239 e73d 0a21 043e 2ba5 143e
00000120: 4c29 253e 6dad 353e 8e31 463e afb5 563e
00000130: d039 673e f1bd 773e 0921 843e 1a63 8c3e
00000140: 2aa5 943e 3ae7 9c3e 4b29 a53e 5c6b ad3e
00000150: 6cad b53e 7cef bd3e 8d31 c63e 9e73 ce3e
00000160: aeb5 d63e bef7 de3e cf39 e73e e07b ef3e
00000170: f0bd f73e 0000 003f 0821 043f 1142 083f
00000180: 1963 0c3f 2184 103f 2aa5 143f 32c6 183f
00000190: 3ae7 1c3f 4208 213f 4a29 253f 534a 293f
000001a0: 5b6b 2d3f 638c 313f 6cad 353f 74ce 393f
000001b0: 7cef 3d3f 8410 423f 8c31 463f 9552 4a3f
000001c0: 9d73 4e3f a594 523f aeb5 563f b6d6 5a3f
000001d0: bef7 5e3f c618 633f ce39 673f d75a 6b3f
000001e0: df7b 6f3f e79c 733f f0bd 773f f8de 7b3f
000001f0: 0000 803f
-1.0 -0.983871 -0.96774197 -0.9516129 -0.9354839 -0.91935486 -0.9032258 -0.88709676
-0.87096775 -0.8548387 -0.8387097 -0.82258064 -0.8064516 -0.7903226 -0.7741935 -0.7580645
-0.7419355 -0.7258065 -0.70967746 -0.6935484 -0.67741936 -0.66129035 -0.6451613 -0.62903225
-0.61290324 -0.5967742 -0.5806452 -0.5645161 -0.5483871 -0.5322581 -0.516129 -0.5
-0.48387098 -0.46774197 -0.45161292 -0.43548387 -0.41935486 -0.40322584 -0.3870968 -0.37096775
-0.35483873 -0.3387097 -0.32258067 -0.30645162 -0.2903226 -0.27419358 -0.25806454 -0.2419355
-0.22580647 -0.20967744 -0.19354841 -0.17741938 -0.16129035 -0.14516132 -0.12903228 -0.11290325
-0.09677422 -0.08064519 -0.06451616 -0.048387125 -0.032258093 -0.016129062 -2.9802322e-08 0.016129002
0.032258093 0.048387125 0.06451616 0.08064519 0.09677422 0.11290325 0.12903228 0.14516132
0.16129035 0.17741938 0.19354841 0.20967744 0.22580647 0.2419355 0.25806454 0.27419358
0.2903226 0.30645162 0.32258067 0.3387097 0.35483873 0.37096775 0.3870968 0.40322584
0.41935486 0.43548387 0.45161292 0.46774197 0.48387098 0.5 0.516129 0.5322581
0.5483871 0.5645161 0.5806452 0.5967742 0.61290324 0.62903225 0.6451613 0.66129035
0.67741936 0.6935484 0.70967746 0.7258065 0.7419355 0.7580645 0.7741935 0.7903226
0.8064516 0.82258064 0.8387097 0.8548387 0.87096775 0.88709676 0.9032258 0.91935486
0.9354839 0.9516129 0.96774197 0.983871 1.0

sigma_0 f4 [48]
00000000: 0821 843c 0821 843c 0821 843c 0821 843c
00000010: 0821 843c 0821 843c 0821 843c 0821 843c
00000020: 0821 843c 0821 843c 0821 843c 0821 843c
00000030: 0821 843c 0821 843c 0821 843c 0821 843c
00000040: 0821 843c 0821 843c 0821 843c 0821 843c
00000050: 0821 843c 0821 843c 0821 843c 0821 843c
00000060: 0821 843c 0821 843c 0821 843c 0821 843c
00000070: 0821 843c 0821 843c 0821 843c 0821 843c
00000080: 0821 843c 0821 843c 0821 843c 0821 843c
00000090: 0821 843c 0821 843c 0821 843c 0821 843c
000000a0: 0821 843c 0821 843c 0821 843c 0821 843c
000000b0: 0821 843c 0821 843c 0821 843c 0821 843c
0.016129032 0.016129032 0.016129032 0.016129032 0.016129032 0.016129032 0.016129032 0.016129032
0.016129032 0.016129032 0.016129032 0.016129032 0.016129032 0.016129032 0.016129032 0.016129032
0.016129032 0.016129032 0.016129032 0.016129032 0.016129032 0.016129032 0.016129032 0.016129032
0.016129032 0.016129032 0.016129032 0.016129032 0.016129032 0.016129032 0.016129032 0.016129032
0.016129032 0.016129032 0.016129032 0.016129032 0.016129032 0.016129032 0.016129032 0.016129032
0.016129032 0.016129032 0.016129032 0.016129032 0.016129032 0.016129032 0.016129032 0.016129032

K.weight f4 [48, 1, 7, 7]
00000000: 0611 23be bcd4 d2bd 79fe eb3d 79e1 213e
00000010: a21b fc3c ddb8 8ebd c68b 92bd ecac d53e
00000020: a4fb 403e 1a04 93be 02da c2be 1e37 b0bd
00000030: 21a4 253e 0a0b 543e 579d 22bf 9dc7 88be
00000040: d3ce d03e 6bd1 193f 1040 3a3e 3462 86be
00000050: 135d b5be 8326 403f 3ef2 bd3e 2cd0 ecbe
00000060: 7971 3fbf 090c 96be 1975 a03e 6feb f63e
00000070: a7cc 2dbf b9fd babe 5a7f c63e 8916 3e3f
00000080: 1341 9c3e fe4c 8fbe bb25 03bf bfee ee3e
00000090: 4117 953e b5b0 80be 17d9 14bf a3c8 85be
000000a0: cd41 783e 7431 cc3e 9299 3fbe f159 04be
000000b0: a503 b93d d1f9 843e a823 fa3d 586a 06be
000000c0: c2d3 0abe 3c2d 04be 514f 983d d3eb 1f3e
000000d0: 10b5 9fbc 7b31 cdbd b905 35bc 325e 543d
000000e0: 7e0d 19be f48b ac3d 15f0 363e 1769 e8bc
000000f0: 6e35 f2bd ccc7 65bc bb61 523d 2cc5 23be
00000100: 8302 a83d 4a20 3f3e 10d5 d7bc 95ee 02be
00000110: 55ee aebc 0715 383d f160 24be ceaa a33d
00000120: c241 403e 6b72 bbbc 2723 03be 89fe 88bc
00000130: 29ff 5e3d dcb5 1bbe 8565 a03d 9485 373e
00000140: 3e93 e6bc db32 febd 3b35 8bbc 78fc 523d
00000150: 199a 13be 1fd4 973d a95d 2c3e 5ec1 d3bc
00000160: 8dca e8bd 3331 65bc 4b62 503d 0ead f9bd
00000170: 1f12 893d 0630 143e ca51 9cbc 224e c2bd
00000180: e327 03bc f608 4d3d 7121 00be f7b3 13be
00000190: 5417 1ebe 7437 22be 8f89 1dbe 48c0 12be
000001a0: 828b fcbd 9c8a 6b3d 7ab4 9d3d 4544 ad3d
000001b0: 1b7c aa3d d0df a33d e2de 903d a134 3c3d
000001c0: d315 0e3e ab30 333e 881d 3c3e 0615 393e
000001d0: 3f62 363e 52e5 293e 3524 083e 9e5a acbc
000001e0: 3f0a afbc b5e1 cdbc cc4b eebc 8d19 cabc
000001f0: 78b9 87bc 1a6d 29bc 9285 c7bd 8cf8 f1bd
00000200: 5ea9 fdbd a232 f8bd e8b0 efbd fec9 ccbd
00000210: b926 a2bd f8f8 8dbc 64d6 9cbc 2bf9 a5bc
00000220: b101 87bc 9937 83bc ffac 83bc 0e52 95bc
00000230: 5ae8 213d 4475 593d fe4c 7a3d 1880 833d
00000240: 04b2 763d 59a9 5b3d 6819 393d ac32 233e
00000250: 3ddd dabe bb5e 163f 2562 11bf 4479 ce3e
00000260: b056 65be ff0e 903d 522e 553e 6a11 e7be
00000270: 98c0 143f 3eaf 15bf ff88 e43e f6ae 81be
00000280: 7726 bb3d fd96 ea3d c589 86be 83fb aa3e
00000290: f246 afbe 249c 823e 8d47 37be 8d18 983d
000002a0: 2079 f9bc a389 1b3d 0118 76bc 2f01 f03c
000002b0: 4d19 a3bc 9dcb 613c 978b c23a a858 03be
000002c0: 59b8 903e 4eb7 b6be 091d b63e 34c5 90be
000002d0: 8d06 3c3e 4e31 a9bd 46a7 1ebe d41f cb3e
000002e0: bc6c 0bbf 79d9 0d3f fbff d1be 452c 6e3e
000002f0: 1a61 acbd 6983 f1bd fd3d af3e 01a5 01bf
00000300: 6c4b fd3e 13e7 b7be e1c8 483e 4669 76bd
00000310: 0afa 7dbd 38b0 8a3e 2d3f 22bf 4a0d 823f
00000320: 543c 91bf 21e7 643f bca5 c5be b26c f0bd
00000330: f718 233e 3223 953c 7d5b a2be 2149 eb3e
00000340: 22d3 abbe 45df 063e 0217 3d3e 3d36 f2be
00000350: c66a 373f 7a77 64bf 57db 733f 5a64 61bf
00000360: 4190 e63e 82ef b33d 0a2b 1bbe 4f44 e33d
00000370: 5a71 7e3d 742a 6fbe ca2b a13e a739 49be
00000380: 0d7b 4fbe b90a d63e 9181 10bf 2c7e 213f
00000390: 44f5 22bf b7d4 043f c7f7 6bbe 1ec3 c2bb
000003a0: 8792 953d 43e5 15be 0659 ea3d 7732 9c3d
000003b0: 6573 7abe d1d1 233e 45ad d43d ce80 86be
000003c0: 9958 da3e 83d7 f0be 8fe5 b23e 9700 05be
000003d0: e3aa f13b 2b63 5d3e c4cc a63d 5e35 1dbe
000003e0: ebce 73be 545e d6bd 4c2f b63d b2de 393e
000003f0: ce36 533e 3de9 ae3d 9773 18be 44da 76be
-0.15924463 -0.10294482 0.11523146 0.15808667 0.030774895 -0.069688536 -0.07155566 0.4173349
0.18845993 -0.28714067 -0.38056952 -0.08604263 0.16175891 0.20707336 -0.6352133 -0.26714793
0.40782794 0.6008517 0.181885 -0.26246798 -0.35422572 0.75058764 0.3709888 -0.46252573
-0.7478252 -0.29306057 0.31339338 0.48226497 -0.678904 -0.365217 0.38769037 0.74253136
0.30518398 -0.27988428 -0.5122945 0.46666524 0.29119304 -0.25134817 -0.5814375 -0.26129636
0.24243851 0.3988148 -0.18710926 -0.12924935 0.09033898 0.25971845 0.12213832 -0.13126504
-0.13557342 -0.1290788 0.074370034 0.15617304 -0.019495517 -0.10019203 -0.011048728 0.051847644
-0.14946553 0.084251314 0.17865022 -0.028370423 -0.11826597 -0.014024686 0.051362734 -0.15993184
0.08203604 0.18664661 -0.026346713 -0.12786324 -0.02135388 0.04494193 -0.16052605 0.07991563
0.18775085 -0.022881707 -0.12806378 -0.016722934 0.05444256 -0.15206093 0.07831863 0.1792205
-0.028146382 -0.12412044 -0.016993156 0.051510304 -0.14414252 0.07413506 0.16832604 -0.02584904
-0.113667585 -0.013988781 0.05087499 -0.12191211 0.066929094 0.14471444 -0.019081969 -0.09487559
-0.008005115 0.050057374 -0.12512757 -0.1442412 -0.15438586 -0.15841466 -0.15384506 -0.14331162
-0.123312965 0.057505235 0.07700439 0.08460287 0.083244525 0.08001673 0.070737615 0.04594863
0.13875513 0.17499034 0.1837064 0.18074426 0.17810915 0.16591385 0.13295062 -0.021039303
-0.02136719 -0.02513204 -0.029088877 -0.024670387 -0.01656793 -0.010340953 -0.097422734 -0.11814985
-0.1238582 -0.121190324 -0.11703664 -0.099994645 -0.07917542 -0.017330632 -0.019145198 -0.020260414
-0.016480299 -0.016017722 -0.016073702 -0.018227603 0.03952823 0.05309035 0.06110858 0.06420916
0.060228363 0.0536283 0.045190245 0.15937299 -0.42746916 0.587383 -0.5679038 0.40326893
-0.2239635 0.0703411 0.20818451 -0.45130473 0.58106375 -0.58470523 0.4463577 -0.25328797
0.09138196 0.1145458 -0.26276985 0.33395013 -0.34233814 0.2550975 -0.17898388 0.07426558
-0.030453265 0.037973057 -0.015020371 0.02929744 -0.019909525 0.013781455 0.0014842626 -0.12826788
0.28265646 -0.35686725 0.35569027 -0.28275454 0.18361874 -0.08261357 -0.15493497 0.3967272
-0.5446279 0.5540996 -0.4101561 0.23259075 -0.08416958 -0.117926426 0.3422698 -0.506424
0.49471605 -0.35918483 0.19607879 -0.06015899 -0.062006034 0.2708757 -0.6337765 1.0160306
-1.1346536 0.89415175 -0.38603008 -0.11739482 0.15927492 0.018205259 -0.31710425 0.4595423
-0.3355952 0.13171108 0.18465808 -0.47307006 0.716473 -0.89244807 0.9525656 -0.8804375
0.45031932 0.08785917 -0.15153137 0.11097013 0.06211982 -0.23356038 0.3147872 -0.19650899
-0.20261784 0.41805056 -0.564477 0.6308315 -0.63655496 0.5188708 -0.23043738 -0.00594367
0.073033385 -0.14638238 0.11442761 0.07626813 -0.24458082 0.15998007 0.10384611 -0.26270145
0.4264572 -0.47039422 0.34940764 -0.12988506 0.0073751076 0.21619861 0.08144525 -0.15352389
-0.23809402 -0.104672104 0.0889574 0.18151358 0.20626375 0.085405804 -0.14887844 -0.24106699

K.mask f4 [1, 1, 7, 7]
00000000: 0000 803f 0000 803f 0000 803f 0000 803f
00000010: 0000 803f 0000 803f 0000 803f 0000 803f
00000020: 0000 803f 0000 803f 0000 803f 0000 803f
00000030: 0000 803f 0000 803f 0000 803f 0000 803f
00000040: 0000 803f 0000 803f 0000 803f 0000 803f
00000050: 0000 803f 0000 803f 0000 803f 0000 803f
00000060: 0000 803f 0000 803f 0000 803f 0000 803f
00000070: 0000 803f 0000 803f 0000 803f 0000 803f
00000080: 0000 803f 0000 803f 0000 803f 0000 803f
00000090: 0000 803f 0000 803f 0000 803f 0000 803f
000000a0: 0000 803f 0000 803f 0000 803f 0000 803f
000000b0: 0000 803f 0000 803f 0000 803f 0000 803f
000000c0: 0000 803f
1.0 1.0 1.0 1.0 1.0 1.0 1.0 1.0
1.0 1.0 1.0 1.0 1.0 1.0 1.0 1.0
1.0 1.0 1.0 1.0 1.0 1.0 1.0 1.0
1.0 1.0 1.0 1.0 1.0 1.0 1.0 1.0
1.0 1.0 1.0 1.0 1.0 1.0 1.0 1.0
1.0 1.0 1.0 1.0 1.0 1.0 1.0 1.0
1.0
